…
	Epoch 8/10
	8567/8567 [==============================] - 50s 6ms/step - loss: 0.0013 - val_loss: 0.0031
	Epoch 9/10
	8567/8567 [==============================] - 49s 6ms/step - loss: 0.0012 - val_loss: 0.0023
	Epoch 10/10
	8567/8567 [==============================] - 49s 6ms/step - loss: 0.0013 - val_loss: 0.0020
	
all above is with 40 cropping form top - 430k params
	 Layer (type)                Output Shape              Param #   
	=================================================================
	 input_1 (InputLayer)        [(None, 160, 320, 3)]     0         
	 cropping2d (Cropping2D)     (None, 120, 320, 3)       0         
	 rescaling (Rescaling)       (None, 120, 320, 3)       0         
	 conv2d (Conv2D)             (None, 120, 320, 6)       456       
	 average_pooling2d (AverageP  (None, 60, 160, 6)       0         
	 ooling2D)                                                       
	 conv2d_1 (Conv2D)           (None, 56, 156, 16)       2416      
	 average_pooling2d_1 (Averag  (None, 28, 78, 16)       0         
	 ePooling2D)                                                     
	 conv2d_2 (Conv2D)           (None, 26, 76, 32)        4640      
	 average_pooling2d_2 (Averag  (None, 13, 38, 32)       0         
	 ePooling2D)                                                     
	 conv2d_3 (Conv2D)           (None, 11, 36, 48)        13872     
	 average_pooling2d_3 (Averag  (None, 5, 18, 48)        0         
	 ePooling2D)                                                     
	 conv2d_4 (Conv2D)           (None, 3, 16, 64)         27712     
	 flatten (Flatten)           (None, 3072)              0         

Try with 60,20 cropping  - total params 180k
	 input_1 (InputLayer)        [(None, 160, 320, 3)]     0         
	 cropping2d (Cropping2D)     (None, 80, 320, 3)        0         
	 rescaling (Rescaling)       (None, 80, 320, 3)        0         
	 conv2d (Conv2D)             (None, 80, 320, 6)        456       
	 average_pooling2d (AverageP  (None, 40, 160, 6)       0         
	 ooling2D)                                                       
	 conv2d_1 (Conv2D)           (None, 36, 156, 16)       2416      
	 average_pooling2d_1 (Averag  (None, 18, 78, 16)       0         
	 ePooling2D)                                                     
	 conv2d_2 (Conv2D)           (None, 16, 76, 32)        4640      
	 average_pooling2d_2 (Averag  (None, 8, 38, 32)        0         
	 ePooling2D)                                                     
	 conv2d_3 (Conv2D)           (None, 6, 36, 48)         13872     
	 average_pooling2d_3 (Averag  (None, 3, 18, 48)        0         
	 ePooling2D)                                                     
	 conv2d_4 (Conv2D)           (None, 1, 16, 64)         27712     

	Epoch 1/10
	8567/8567 [==============================] - 39s 4ms/step - loss: 0.0031 - val_loss: 0.0021
	Epoch 2/10
	8567/8567 [==============================] - 38s 4ms/step - loss: 0.0015 - val_loss: 0.0024
	Epoch 3/10
	8567/8567 [==============================] - 38s 4ms/step - loss: 0.0014 - val_loss: 0.0020
	Epoch 4/10
	8567/8567 [==============================] - 37s 4ms/step - loss: 0.0012 - val_loss: 0.0025
…
	8567/8567 [==============================] - 37s 4ms/step - loss: 0.0079 - val_loss: 0.0040
	Epoch 7/10
	8567/8567 [==============================] - 37s 4ms/step - loss: 0.0079 - val_loss: 0.0042
	Epoch 8/10
	8567/8567 [==============================] - 37s 4ms/step - loss: 0.0079 - val_loss: 0.0041
	Epoch 9/10
	8567/8567 [==============================] - 37s 4ms/step - loss: 0.0079 - val_loss: 0.0040
	Epoch 10/10
	8567/8567 [==============================] - 37s 4ms/step - loss: 0.0079 - val_loss: 0.0040

re-affirm drop 0.4,0.2
	 input_1 (InputLayer)        [(None, 160, 320, 3)]     0         
	 cropping2d (Cropping2D)     (None, 80, 320, 3)        0         
	 rescaling (Rescaling)       (None, 80, 320, 3)        0         
	 conv2d (Conv2D)             (None, 80, 320, 6)        456       
	 average_pooling2d (AverageP  (None, 40, 160, 6)       0         
	 ooling2D)                                                       
	 conv2d_1 (Conv2D)           (None, 36, 156, 16)       2416      
	 average_pooling2d_1 (Averag  (None, 18, 78, 16)       0         
	 ePooling2D)                                                     
	 conv2d_2 (Conv2D)           (None, 16, 76, 32)        4640      
	 average_pooling2d_2 (Averag  (None, 8, 38, 32)        0         
	 ePooling2D)                                                     
	 conv2d_3 (Conv2D)           (None, 6, 36, 48)         13872     
	 average_pooling2d_3 (Averag  (None, 3, 18, 48)        0         
	 ePooling2D)                                                     
	 conv2d_4 (Conv2D)           (None, 1, 16, 64)         27712     
	 flatten (Flatten)           (None, 1024)              0         
	 dropout (Dropout)           (None, 1024)              0         
	 dense (Dense)               (None, 120)               123000    
	 dropout_1 (Dropout)         (None, 120)               0         
	 dense_1 (Dense)             (None, 84)                10164     
	 dense_2 (Dense)             (None, 1)                 85   
	
	Epoch 1/10
	8567/8567 [==============================] - 40s 5ms/step - loss: 0.0036 - val_loss: 0.0020
	Epoch 2/10
	8567/8567 [==============================] - 38s 4ms/step - loss: 0.0016 - val_loss: 0.0021
	Epoch 3/10
	8567/8567 [==============================] - 38s 4ms/step - loss: 0.0014 - val_loss: 0.0018
	Epoch 4/10
	8567/8567 [==============================] - 38s 4ms/step - loss: 0.0013 - val_loss: 0.0025
…
	8567/8567 [==============================] - 48s 6ms/step - loss: 0.0078 - val_loss: 0.0041
	Epoch 3/10
	8567/8567 [==============================] - 48s 6ms/step - loss: 0.0078 - val_loss: 0.0040
	Epoch 4/10
	8567/8567 [==============================] - 47s 6ms/step - loss: 0.0079 - val_loss: 0.0040
	Epoch 5/10
	8567/8567 [==============================] - 47s 6ms/step - loss: 0.0078 - val_loss: 0.0040

LeNetDrop2XConvPoorRes - 5 resnet blocks
	 input_1 (InputLayer)           [(None, 160, 320, 3  0           []                               
		                        )]                                                                
	 cropping2d (Cropping2D)        (None, 80, 320, 3)   0           ['input_1[0][0]']                
	 rescaling (Rescaling)          (None, 80, 320, 3)   0           ['cropping2d[0][0]']             
	 conv1 (Conv2D)                 (None, 80, 320, 6)   456         ['rescaling[0][0]']              
	 av1 (AveragePooling2D)         (None, 40, 160, 6)   0           ['conv1[0][0]']                  

	 conv2_1 (Conv2D)               (None, 40, 160, 16)  2416        ['av1[0][0]']                    
	 av2_1 (AveragePooling2D)       (None, 20, 80, 16)   0           ['conv2_1[0][0]']                
	 conv2_2 (Conv2D)               (None, 20, 80, 16)   6416        ['av2_1[0][0]']                  
	 skip2 (Conv2D)                 (None, 20, 80, 16)   112         ['av1[0][0]']                    
	 add2 (Add)                     (None, 20, 80, 16)   0           ['conv2_2[0][0]','skip2[0][0]']                  
	 act2 (Activation)              (None, 20, 80, 16)   0           ['add2[0][0]']                   

	 conv3_1 (Conv2D)               (None, 20, 80, 16)   2320        ['act2[0][0]']                   
	 conv3_2 (Conv2D)               (None, 20, 80, 16)   2320        ['conv3_1[0][0]']                
	 skip3 (Conv2D)                 (None, 20, 80, 16)   272         ['act2[0][0]']                   
	 add3 (Add)                     (None, 20, 80, 16)   0           ['conv3_2[0][0]','skip3[0][0]']                  
	 act3 (Activation)              (None, 20, 80, 16)   0           ['add3[0][0]']                   

	 conv4_1 (Conv2D)               (None, 20, 80, 32)   4640        ['act3[0][0]']                   
	 av4_1 (AveragePooling2D)       (None, 10, 40, 32)   0           ['conv4_1[0][0]']                
	 conv4_2 (Conv2D)               (None, 10, 40, 32)   9248        ['av4_1[0][0]']                  
	 skip4 (Conv2D)                 (None, 10, 40, 32)   544         ['act3[0][0]']                   
	 add4 (Add)                     (None, 10, 40, 32)   0           ['conv4_2[0][0]','skip4[0][0]']                  
	 act4 (Activation)              (None, 10, 40, 32)   0           ['add4[0][0]']                   

	 conv5_1 (Conv2D)               (None, 10, 40, 32)   9248        ['act4[0][0]']                   
	 conv5_2 (Conv2D)               (None, 10, 40, 32)   9248        ['conv5_1[0][0]']                
	 skip5 (Conv2D)                 (None, 10, 40, 32)   1056        ['act4[0][0]']                   
	 add5 (Add)                     (None, 10, 40, 32)   0           ['conv5_2[0][0]','skip5[0][0]']                  
	 act5 (Activation)              (None, 10, 40, 32)   0           ['add5[0][0]']                   

	 conv6_1 (Conv2D)               (None, 10, 40, 48)   13872       ['act5[0][0]']                   
	 av6_1 (AveragePooling2D)       (None, 5, 20, 48)    0           ['conv6_1[0][0]']                
	 conv6_2 (Conv2D)               (None, 5, 20, 48)    20784       ['av6_1[0][0]']                  
	 skip6 (Conv2D)                 (None, 5, 20, 48)    1584        ['act5[0][0]']                   
	 add6 (Add)                     (None, 5, 20, 48)    0           ['conv6_2[0][0]','skip6[0][0]']                  
	 act6 (Activation)              (None, 5, 20, 48)    0           ['add6[0][0]']                   
		                                                                                          
	 conv2d (Conv2D)                (None, 3, 18, 64)    27712       ['act6[0][0]']                   
	 flatten (Flatten)              (None, 3456)         0           ['conv2d[0][0]']                 
	 dropout (Dropout)              (None, 3456)         0           ['flatten[0][0]']                
	 dense (Dense)                  (None, 120)          414840      ['dropout[0][0]']                
	 dropout_1 (Dropout)            (None, 120)          0           ['dense[0][0]']                  
	 dense_1 (Dense)                (None, 84)           10164       ['dropout_1[0][0]']              
	 dense_2 (Dense)                (None, 1)            85          ['dense_1[0][0]']                

	Epoch 1/10
	8567/8567 [==============================] - 74s 8ms/step - loss: 0.0080 - val_loss: 0.0041
	Epoch 2/10
	8567/8567 [==============================] - 72s 8ms/step - loss: 0.0078 - val_loss: 0.0041
	Epoch 3/10
	8567/8567 [==============================] - 71s 8ms/step - loss: 0.0078 - val_loss: 0.0040
	Epoch 4/10
	8567/8567 [==============================] - 72s 8ms/step - loss: 0.0079 - val_loss: 0.0040
…
